mass_spectra_app/cnn_complete.pth (torch, 5302 bytes, 2 tensors)

weight f4 [64, 1, 8]
0.7726849 0.17124856 0.8165679 -0.24307612 0.8474399 -0.12701885 0.75938123 -0.22294343
0.013163725 0.26039964 -0.44422036 0.092468426 -0.010482882 -0.062156532 0.25331083 -0.19947536
-0.21600752 -0.13242577 0.17548344 0.35825276 0.3066367 -0.083345994 -0.12593703 -0.24334207
0.501855 0.2970405 -0.1505808 0.48127922 -0.053450804 0.25945732 0.49465188 0.4786991
0.18215345 0.42886636 0.31861472 0.044928722 -0.21164413 -0.17195375 0.44520295 0.43341228
0.022943059 0.63760334 -0.11218476 0.102934286 0.3163867 0.44907048 -0.011874935 0.36615893
-0.12697539 0.55624694 -0.30681598 0.23585631 0.7664363 -0.14322515 0.6002725 -0.036342487
0.71046007 0.037631553 0.70358515 -0.16856016 0.28259045 0.104283355 0.33651134 0.46859857
0.14608863 0.051909596 0.14243433 -0.29989335 -0.2943566 -0.284049 -0.07669938 0.30124748
0.06136408 -0.11160865 -0.061067495 -0.3535385 -0.20661788 -0.15167373 -0.2634105 -0.053065114
0.3709517 0.32550758 0.5765909 0.24096881 -0.18963586 0.042341907 0.4067476 0.5891325
-0.132685 0.8665527 -0.10176308 0.08994562 0.68073463 0.40366626 -0.09648425 0.42775792
-0.104733154 -0.0751155 0.7079369 -0.15105933 0.53601915 0.02483185 0.40737548 0.6109759
-0.22174041 -0.17306158 -0.5678166 -0.092327 0.36817586 -0.55998445 0.2684438 -0.101355486
0.5820533 0.6436005 -0.2818102 0.06942366 0.81841695 0.5030057 -0.09159504 0.69387484
0.1480027 -0.1778549 -0.24411778 0.07604021 -0.2974521 0.051098373 -0.12637922 -0.2418448
-0.015262104 0.66286355 -0.06455741 0.47068688 0.047633447 0.25193363 -0.28787693 0.396941
0.4345062 -0.60430354 0.4181084 -0.21469444 0.45068786 0.289558 -0.25143352 -0.2802796
-0.20443417 -0.09879229 -0.17518839 -0.3183074 -0.3458047 -0.0037321455 -0.104968116 -0.32372513
0.32733724 0.3626734 0.33776152 -0.30275187 0.493731 0.3782977 0.2609793 -0.2009846
0.25480402 0.37380114 -0.06661995 0.1501684 0.005244672 0.022237891 -0.19179271 0.19078827
-0.12249108 0.0012657177 0.49192664 1.2285202 0.6069121 0.6065409 -0.04678544 0.32259554
0.38181219 -0.0870886 0.2145517 0.044765487 -0.32560745 0.43592435 0.34590712 0.11909871
0.08762989 0.006466632 0.010279017 -0.060151316 0.20943318 -0.06778288 0.1508908 0.016641183
-0.19340186 0.8622568 0.06281018 -0.14018048 0.526386 -0.11660155 0.36089468 0.60337967
-0.1407885 1.0832607 0.09812637 0.26547968 0.77111506 0.70366627 -0.20704508 0.4585703
0.6839936 0.5154213 0.100643784 -0.11650934 0.693916 -0.19117151 0.65089184 0.5771504
0.3355685 -0.22074719 -0.67303044 -0.17679235 0.20569095 -0.2573919 0.41805354 0.15250811
-0.28355375 0.20923878 -0.17579488 -0.25086096 0.31707218 -0.1232247 -0.3518285 0.1935355
0.25401965 0.24816275 -0.22788805 0.28403774 0.11740392 0.011965058 0.09230521 0.07178541
-0.08578107 -0.09186118 0.18607314 -0.11510798 0.2033938 -0.15728432 -0.2428936 0.21996658
0.4443041 0.14076388 0.6164762 0.6386373 0.078559324 0.4882691 0.021144876 0.31068605
00000000: adce 453f c85b 2f3e 980a 513f f2e8 78be
00000010: d2f1 583f 3b11 02be cf66 423f 484b 64be
00000020: aaac 573c 1a53 853e da70 e3be 1660 bd3d
00000030: 65c0 2bbc d997 7ebd f5b1 813e 4543 4cbe
00000040: 1331 5dbe 9f9a 07be eeb1 333e e86c b73e
00000050: 7cff 9c3e 4eb1 aabd a3f5 00be aa2e 79be
00000060: 9279 003f b115 983e da31 1abe 3b6a f63e
00000070: 3bef 5abd 97d7 843e 0343 fd3e 0c18 f53e
00000080: 6f86 3a3e 5f94 db3e 7821 a33e 2e07 383d
00000090: 3db9 58be a514 30be a4f1 e33e 37e8 dd3e
000000a0: 15f3 bb3c f939 233f 20c1 e5bd 36cf d23d
000000b0: 70fd a13e 91ec e53e 168f 42bc 2f79 bb3e
000000c0: d605 02be 3366 0e3f fc16 9dbe 5184 713e
000000d0: 2b35 443f 9da9 12be 75ab 193f dcdb 14bd
000000e0: b6e0 353f 8b23 1a3d 281e 343f 099b 2cbe
000000f0: b2af 903e 8392 d53d 374b ac3e 27ec ef3e
00000100: 4298 153e 289f 543d 4eda 113e 9f8b 99be
00000110: e9b5 96be df6e 91be 9114 9dbd 1c3d 9a3e
00000120: e758 7b3d 1393 e4bd e921 7abd 0003 b5be
00000130: a393 53be 5c50 1bbe bedd 86be ce5a 59bd
00000140: 62ed bd3e eea8 a63e 769b 133f 87c0 763e
00000150: e72f 42be b56e 2d3d 3941 d03e 63d1 163f
00000160: 94de 07be 66d6 5d3f 2969 d0bd 6935 b83d
00000170: a044 2e3f 58ad ce3e 8999 c5bd 1603 db3e
00000180: 567e d6bd 28d6 99bd 5a3b 353f 4caf 1abe
00000190: 8d38 093f 2a6c cb3c 8593 d03e eb68 1c3f
000001a0: eb0f 63be 0e37 31be 6e5c 11bf f015 bdbd
000001b0: 8c81 bc3e 245b 0fbf 7771 893e 7793 cfbd
000001c0: 7201 153f 01c3 243f 6d49 90be fe2d 8e3d
000001d0: c683 513f fbc4 003f 2e96 bbbd c8a1 313f
000001e0: 058e 173e 981f 36be 03fa 79be f8ba 9b3d
000001f0: a44b 98be 874c 513d 8e69 01be 2aa6 77be
00000200: e70d 7abc 6db1 293f ad36 84bd dffd f03e
00000210: 4a1b 433d 72fd 803e 9b64 93be da3b cb3e
00000220: 9977 de3e a3b3 1abf 4e12 d63e dcd8 5bbe
00000230: 8fc0 e63e f240 943e e5bb 80be cf80 8fbe
00000240: 3157 51be 9d53 cabd 9664 33be 30f9 a2be
00000250: 500d b1be 0397 74bb 86f9 d6bd 4dbf a5be
00000260: bf98 a73e 54b0 b93e 14ef ac3e 4b02 9bbe
00000270: 4fca fc3e 3cb0 c13e 149f 853e e8ce 4dbe
00000280: ac75 823e dd62 bf3e 0a70 88bd bfc5 193e
00000290: 7fdb ab3b 3d2c b63c 4f65 44be 005e 433e
000002a0: 9adc fabd 70e6 a53a cfdd fb3e 2640 9d3f
000002b0: 975e 1b3f 4446 1b3f 17a2 3fbd 3e2b a53e
000002c0: e37c c33e 825b b2bd 71b3 5b3e 045c 373d
000002d0: 05b6 a6be 7a31 df3e bd1a b13e 06ea f33d
000002e0: 4d77 b33d 0ae6 d33b 5269 283c 3a61 76bd
000002f0: a775 563e c0d1 8abd 1e83 1a3e 1753 883c
00000300: 230b 46be ddbc 5c3f a0a2 803d 798b 0fbe
00000310: 3cc1 063f cbcc eebd 30c7 b83e 1777 1a3f
00000320: dc2a 10be 49a8 8a3f 7af6 c83d f4ec 873e
00000330: cc67 453f 7923 343f a003 54be bac9 ea3e
00000340: 341a 2f3f a6f2 033f 541e ce3d 739c eebd
00000350: 7ba4 313f 77c2 43be d9a0 263f 21c0 133f
00000360: a2cf ab3e 8d0b 62be b94b 2cbf 0e09 35be
00000370: a6a0 523e dfc8 83be 1d0b d63e 162b 1c3e
00000380: f52d 91be b142 563e 9303 34be d970 80be
00000390: 4957 a23e 3b5d fcbd dd22 b4be 2c2e 463e
000003a0: dd0e 823e 601e 7e3e 7c5b 69be 656d 913e
000003b0: 7771 f03d 1709 443c 840a bd3d 3b04 933d
000003c0: fcad afbd b721 bcbd f589 3e3e bcbd ebbd
000003d0: 7746 503e 240f 21be 1ab9 78be eb3e 613e
000003e0: d47b e33e 6824 103e 62d1 1d3f bc7d 233f
000003f0: b6e3 a03d 68fe f93e 0538 ad3c 3e12 9f3e

bias f4 [64]
0.124829434 -0.035195116 -0.067131534 0.0956704 -0.1281106 0.122894324 -0.0064115487 0.0010831316
-0.32560372 -0.059716813 0.14490095 0.032289557 0.13107155 -0.3424087 0.29828212 -0.35218012
0.33227643 -0.0095293475 -0.05916195 -0.02590615 -0.015791943 -0.33414653 -0.10324321 -0.28971127
0.3442153 0.2449696 0.085034184 -0.043356385 -0.35085064 -0.020660864 -0.27477095 0.084469914
-4.149848e-05 0.25690806 0.0475696 0.13395698 -0.3327038 -0.3100368 -0.056152165 0.15884715
0.29829425 -0.19696169 0.10825336 -0.025630055 -0.1635804 -0.25408894 -0.008795803 -0.077625535
-0.29287705 -0.32859784 0.13679388 0.24683557 0.28609884 -0.032516893 -0.029162098 0.35993108
-0.06391445 0.01535261 0.093607925 0.056055956 -0.1439089 0.3258316 -0.08458194 -0.0028702775
00000000: 93a6 ff3d c128 10bd 427c 89bd d8ee c33d
00000010: 6d2f 03be 05b0 fb3d f817 d2bb def7 8d3a
00000020: 88b5 a6be 9e99 74bd ea60 143e 0e42 043d
00000030: 9f37 063e 3150 afbe 6fb8 983e f450 b4be
00000040: 2320 aa3e fb20 1cbc cd53 72bd 2239 d4bc
00000050: 1b5e 81bc 4115 abbe 2d71 d3bd 0955 94be
00000060: fd3c b03e 50d9 7a3e 6726 ae3d 7796 31bd
00000070: b2a2 b3be f940 a9bc c7ae 8cbe 90fe ac3d
00000080: a70e 2eb8 7489 833e 57d8 423d 052c 093e
00000090: 2758 aabe 25bd 9ebe d0ff 65bd d4a8 223e
000000a0: 06ba 983e 53b0 49be f0b3 dd3d 1ff6 d1bc
000000b0: 9f81 27be f217 82be 461c 10bc 23fa 9ebd
000000c0: fbf3 95be fa3d a8be b213 0c3e 77c2 7c3e
000000d0: 8c7b 923e 6f30 05bd 5ae5 eebc e348 b83e
000000e0: 94e5 82bd 8389 7b3c 83b5 bf3d ee9a 653d
000000f0: db5c 13be 66d3 a63e 4c39 adbd 441b 3cbb
