mass_spectra_app/distance_classifier_full.pth (torch, 3736 bytes, 3 tensors)

weight f4 [8, 1]
00000000: e714 d43f 22fc 2ebf 8ba5 39bf 8d81 cc3d
00000010: 14e2 96be 5ea7 e93f 2b18 83bf dead 71bf
1.6568879 -0.68353474 -0.72518224 0.09985647 -0.2946936 1.8254201 -1.024175 -0.94405925

bias f4 [8]
00000000: b912 18bb ced2 40bf bc88 883f 8e5d c83e
00000010: 0063 61bc 8b30 a13c f625 b93f 8304 713f
-0.002320452 -0.7532166 1.0666728 0.39133877 -0.013756514 0.019676467 1.446471 0.9414751

weight f4 [1, 8]
00000000: 8e48 96bf ff49 b4be dee3 1a3f f263 883b
00000010: 78a7 93be f092 a8bf 7734 683f 1257 4a3f
-1.1740892 -0.35212705 0.6050395 0.004162305 -0.28838706 -1.3169842 0.90705055 0.7903911
