mass_spectra_app/fc_complete.pth (torch, 69680 bytes, 4 tensors)

weight f4 [128, 64]
00000000: d43a d33c a5be 343d 92bd 5e3d 00fb 03be
00000010: 4216 c13d 619c eb3d 2d19 9bbd 018c 8cbd
00000020: 12a3 eb3d 1b64 cb3d 3175 0fbd 36fe ad39
00000030: c6db 4f3c 6a16 903a 001f bebc be91 d9bc
00000040: c1ba 37bd b90b e73c ee55 0b3e affd af3d
00000050: 7e76 b5bd 3734 b83d 0350 253e f91b d5bd
00000060: f926 793c 0ce1 b03d 51d2 78bd c467 86bd
00000070: 0141 053e 7cb5 83bd e6dd 30bc 003f 073e
00000080: d512 cf3d d59d 983d 5ee2 7ebb e65f a7bc
00000090: 3f4a 8d3c 94cd c6bc 84a5 d539 2bf0 0abe
000000a0: 8cd1 2d3c 4c34 73bc 97b6 1abe df55 9cbd
000000b0: d4a4 3cbc 7541 06bd 7791 04be c094 b63d
000000c0: b215 cc3d 57d7 b23d c5b3 eabd 4298 f53c
000000d0: 0e3d 9ebd 22b9 18bd 4f4c 11bb 2e02 60bc
000000e0: 29f0 90bd 0907 2d3d de35 35bd a9e0 96bd
000000f0: 824a a7bd 4df2 86bd fe90 bebd e0e5 eb3d
00000100: ec59 663b 03a9 0dbe 38d6 93bd b0c7 26bc
00000110: e70b 2bbd 3d45 05be 465b f6bd e14e 53bc
00000120: 0f96 16bc 99a8 233d c36e e6bc 492b ddbd
00000130: 019d 4fbd f02b 7ebd 6112 2fbd 7fd7 25be
00000140: 5803 1fbd 4caa 363d 7ec3 b1bd 5cd7 17bd
00000150: 1c04 113e c2e1 823d 715b adbd 3daa 3e3e
00000160: e692 473d d955 26bd dfba a73d 9236 d13d
00000170: 3c25 38bc 32a9 3abe 016f cdbd 6e8f 133e
00000180: 2608 3b3d 64e9 063b 46e0 eb3d 4eeb d63d
00000190: 526f c73c 0d31 933d 64e4 313e 4473 2a3c
000001a0: d600 b0ba b1c9 d43c 4c3d 9cbd 9d4f 5cbc
000001b0: 59cf 453d 5007 03be 5760 303c ffdf 9abc
000001c0: 16d0 793d 0956 4e3d 3bf0 69bd bed0 dc3d
000001d0: f397 4f3d 236c 263e 9149 4cbd 3cfc 9c3d
000001e0: 165f 213e dcaa d5bc f589 15be 375b 043e
000001f0: 417f f93d a10d 173d a801 03bd f9cd d03d
00000200: 0b9d af3b 8504 033e dbdc 9abb 845b 1dbe
00000210: 53d3 cd3c d1b8 333d 55b2 a03d 6794 13bd
00000220: b656 dc3d af9d ac3d ab3b 993d 2bb0 bebd
00000230: 2376 b3bd 17a4 4fbd 5018 9d3d 22f8 9e3c
00000240: e096 b23c 23a5 183d 8a0d dc3d fc73 7f3d
00000250: 78ee bc3d 967d 323d 3243 bd3c f711 f7bc
00000260: 8494 843d 653e 263d 7f19 203d 088f 453d
00000270: ba8a af3d 7e95 873d 924c 783c 884c b53d
00000280: ba99 f23c 17f0 f63d e59f 87bd 4cd6 453c
00000290: 552b 8d3c 356a c2bd f46a b93d 9a49 03be
000002a0: 2b1f 42bd bcfa 2a3d bd01 393b 15a6 2f3d
000002b0: cc38 fa3a c262 cbbd 5905 4cbd a158 5c3c
000002c0: 7fed c1bd 3902 893d c535 6a3d 11c3 42bd
000002d0: b9c4 cdbd 3f1e f5bd 0d92 7dbc 9811 e33c
000002e0: 98cc b83c 0b73 a0bd b0cd 203d 70e8 ecbd
000002f0: 6cb3 be3d 45c3 58bc b04c 70bb 5eb3 893d
00000300: b32d c7bd 51a3 01bd a30b 823d f265 63bc
00000310: 3e72 2cbd b83d 0f3d d8bd a1bd 43d7 b7bd
00000320: dfda 0d3e aa54 e8ba b76c 59bd 8724 0bbd
00000330: 21c1 62bc 09f8 18bd f33b afbc 0b90 bf3c
00000340: 9dd4 423d 434a d13c 2b4a 243b 9d4b 163e
00000350: ef64 0abc 0e7d 003d b860 5dbd 9d05 07bb
00000360: 00cd e5bd 3c42 fd3c d326 083d dc16 b2bd
00000370: 5b10 64bb 0cbe 813d a6df 60bd 3576 e1bd
00000380: 93f6 7cbd 07fe 093e ffc5 753d dc8b d93c
00000390: a777 0dbd 0fa7 82bd fdd9 58bd e0b7 f5bd
000003a0: 33c5 ce3c e20c 513d 4042 0bbe c29c 493d
000003b0: a150 fabc 9e7b 263d e3bc c73d f55e 42bc
000003c0: a785 b63d bdd5 143e cb8f 3bbc 3337 0a3d
000003d0: 36ce cbbd 456f 873d 3ae0 a13c 2d38 ebbc
000003e0: c350 98bc 7900 1abd 7e5e f1bc af74 d43c
000003f0: 9874 873d 0834 bfbd 042c a2bd cd5d a23d
0.025784887 0.044127125 0.054380007 -0.12888718 0.094280735 0.11504436 -0.07573161 -0.06862641
0.115057126 0.09931203 -0.03502387 0.00033186533 0.012686675 0.0010993008 -0.023208141 -0.026558753
-0.044855837 0.028203832 0.13606998 0.08593308 -0.08860491 0.08994334 0.16143803 -0.10405726
0.015207046 0.08636674 -0.06074745 -0.065627605 0.13013078 -0.064311 -0.010795092 0.13207626
0.10111014 0.07451979 -0.003889225 -0.02043147 0.017247317 -0.02426795 0.00040749845 -0.1356818
0.010609042 -0.0148440115 -0.15108715 -0.07633566 -0.011513907 -0.03277727 -0.12946115 0.089150906
0.099650756 0.08732479 -0.114600696 0.029979829 -0.07726489 -0.03728593 -0.0022170728 -0.013672395
-0.07077057 0.042243037 -0.044240825 -0.07367069 -0.08168508 -0.06589184 -0.09304999 0.115184546
0.0035148812 -0.13834004 -0.07218593 -0.010179445 -0.041759398 -0.13014694 -0.12029128 -0.012897224
-0.00919105 0.03995571 -0.028128987 -0.107992716 -0.05068684 -0.06205362 -0.042742137 -0.16195486
-0.03882155 0.044596 -0.08679865 -0.037070617 0.14161724 0.06390716 -0.08464707 0.18619628
0.048724078 -0.040609214 0.0818994 0.102154866 -0.011239346 -0.18228605 -0.10030938 0.14410183
0.045662068 0.002058589 0.11517386 0.104940996 0.024345074 0.0718709 0.1737228 0.010403458
-0.0013427984 0.02597508 -0.07628879 -0.013446716 0.048293445 -0.12795758 0.010765157 -0.018905638
0.06098946 0.05037502 -0.057113867 0.10782002 0.05068202 0.16252188 -0.049874846 0.076652974
0.15758929 -0.026082449 -0.14603408 0.1292542 0.12182475 0.036878232 -0.031984 0.10195536
0.005359297 0.12794693 -0.004726035 -0.15366942 0.025125181 0.043877427 0.07846514 -0.0360302
0.10758726 0.08428513 0.07482084 -0.09310945 -0.08762767 -0.050693598 0.07670653 0.019405428
0.021800458 0.03726686 0.1074477 0.06236647 0.09225172 0.0435768 0.02310333 -0.030159933
0.064736396 0.040586848 0.039086815 0.04823211 0.08571382 0.0662031 0.015154975 0.08852488
0.029614318 0.12057512 -0.06622294 0.012075018 0.017232576 -0.09492914 0.09053603 -0.12821046
-0.047393005 0.041743025 0.0028229796 0.042882998 0.0019090413 -0.09930946 -0.049809787 0.013448865
-0.09469127 0.06689877 0.057180185 -0.04754931 -0.100472875 -0.119686596 -0.015476716 0.02771835
0.022558495 -0.07834443 0.03925866 -0.115677714 0.09311566 -0.01323015 -0.0036666803 0.06723665
-0.09725513 -0.03164989 0.06349876 -0.013879286 -0.042101137 0.03497097 -0.07897538 -0.08976605
0.13853024 -0.0017725427 -0.053082194 -0.033970382 -0.013839991 -0.03734592 -0.02139089 0.023384115
0.047566045 0.025548106 0.0025068622 0.14677282 -0.008446916 0.03136926 -0.054047316 -0.002060271
-0.11220741 0.030915372 0.03324015 -0.08695766 -0.0034799788 0.06335077 -0.054900788 -0.11008874
-0.06175859 0.1347581 0.060003277 0.026555948 -0.034537937 -0.0637952 -0.052942265 -0.11997962
0.025240516 0.051037677 -0.13599491 0.04922176 -0.030556025 0.040645234 0.09752824 -0.01186346
0.08912211 0.1453466 -0.011447857 0.03374405 -0.09951441 0.0661302 0.01976024 -0.02871331
-0.018593198 -0.037598107 -0.029464003 0.025934545 0.06614035 -0.09336096 -0.079185516 0.07928047

bias f4 [128]
00000000: ba5b 2abc 17ba 0c3e 085e bb3d 4e63 0dbe
00000010: 3f36 34bd b1ac e8bd 1e4a 043d 8b82 18be
00000020: f7cc dcbd 6828 acbd 1723 ebbd 50db 023e
00000030: cae0 68be 586d f23c 38d3 64be 690e 873d
00000040: fff2 55bd 2a67 fa3d 6e96 113b 6342 e2bd
00000050: 8568 3fbd 87b8 94bd 4474 08be 7b51 cfbd
00000060: 1c5d f63c 9da5 843d 090d ed3d 529a 39bd
00000070: 5fb2 df3d 60d7 26bc 331d f1bd c5e9 b93c
00000080: be85 603c fb4b 83be 8ceb b23c 5832 7dbd
00000090: 9cba d4bd a2bd 713c 4d71 eb3d 3527 e4bc
000000a0: fccd e7bd 128a ebbd c8d2 813c 71e1 77bd
000000b0: 9d4e 4d3c ab09 b53c ec78 703d 0e19 8cbc
000000c0: c632 ecbd cf6a 65be f4f7 f1bd 4b5f 08be
000000d0: 21dc 883d 4dc8 9e3c 4e0b b83d 31dd 07bd
000000e0: 74b6 033b b82e 63bd 9c85 b43d da5e ad3d
000000f0: 3c56 51bd 0e85 7ebd 6738 a5bd b2f1 c6bd
00000100: 4a88 4c3d 6f53 de3d cc14 a3bd a93e 213c
00000110: 44e6 a33d 6728 db3d 3951 44be b17c 30bc
00000120: 94fb 543e 26f9 503d 8e0d 6f3e ba34 f6bd
00000130: 9b5b db3c 30bf 3fbd a058 0d3d c079 b83d
00000140: 014e c9bd 6b86 c23d ebac d5bc dd79 093e
00000150: 8198 033e cc67 0b3e acff 40be e59b 353d
00000160: 1bda 6c3c 7942 4fbc e105 6fbe 1d2a 5e3d
00000170: a1c9 77bd 668e a0bd f9a1 c63d 07bc aebd
00000180: ed57 7bbc 631a ce3d ddb3 0b3d 1378 063e
00000190: ff4d bbbd 40e6 d3bc a2a7 e5bd 696d aebd
000001a0: 9d16 00be 05a7 9f3d 27b5 1fbc 8d27 ecbd
000001b0: 1afb 8a3d 5f9f 9d3d 45a3 cebd 6564 0bbd
000001c0: 1a34 afbd b3c8 d9bc b5ff acbb a0d4 21bd
000001d0: fca2 48bc 45f7 753c e82b e9bd 9e75 92bd
000001e0: 80f8 95bc 0fb9 0b3e c5be c03d b772 dc3d
000001f0: 8e2d cbbd 4f57 7dbc 9055 fbbd c07c 39bb
-0.010397846 0.13742863 0.091487944 -0.13807413 -0.043997046 -0.11361063 0.032297246 -0.14893548
-0.107812814 -0.084061444 -0.11481302 0.12778974 -0.22742 0.029593155 -0.22346199 0.065945454
-0.052233692 0.12226708 0.0022214907 -0.110478185 -0.046730537 -0.07261758 -0.13325602 -0.10122963
0.030073695 0.06476901 0.11574752 -0.045313187 0.109226935 -0.010183185 -0.117731474 0.022694478
0.013703762 -0.25643906 0.021840833 -0.06181559 -0.103871554 0.014754685 0.1149622 -0.027850727
-0.11318585 -0.11500944 0.015847579 -0.060517732 0.01253095 0.022099337 0.05870907 -0.01710179
-0.11533122 -0.22404025 -0.118148714 -0.13317601 0.06682611 0.01938262 0.08986531 -0.03316993
0.0020097764 -0.055464476 0.088145465 0.08465357 -0.05110763 -0.06213861 -0.080673985 -0.097140685
0.049934663 0.108557574 -0.07962951 0.0098415995 0.08002904 0.107010655 -0.19171609 -0.010771916
0.20799094 0.051018856 0.23345014 -0.120217755 0.02677708 -0.04681319 0.034508348 0.09007597
-0.09829331 0.094982944 -0.02608343 0.13425393 0.12851144 0.13613814 -0.18847531 0.044338126
0.014456297 -0.012650126 -0.23342086 0.05423938 -0.060495023 -0.0783966 0.096988626 -0.08531957
-0.015340787 0.100636266 0.034107078 0.13131742 -0.09145736 -0.025866628 -0.11213614 -0.08516962
-0.12508626 0.07795528 -0.00974778 -0.11530981 0.06786175 0.07696413 -0.10089735 -0.03403129
-0.085548595 -0.026584959 -0.005279506 -0.039509416 -0.01224589 0.015012567 -0.113853276 -0.0715134
-0.01830697 0.13644813 0.094113864 0.107640676 -0.09920798 -0.0154627105 -0.12272179 -0.0028303117

weight f4 [64, 128]
00000000: 1553 6dbc 2a17 b33e bbd8 4e3e e8f5 7f3d
00000010: 30fe 8dbb 0da9 f03b 2d66 d13e 0f34 cfbd
00000020: 9d4f 2b3e 9620 363f d078 35bd f12d 3e3e
00000030: b5c8 103e 0cf4 463f d4c3 283e cf75 a43e
00000040: e8f0 fb3e 1ce0 be3e eff7 863d 8918 283e
00000050: a14b 953e 41a5 023f 9680 8b3d a9dd 1ebd
00000060: eeec 033d a2c7 ce3e a1d7 793e b27e 413e
00000070: 8ec7 263e 0b3f 13bd 68b9 543d e3f4 c0bc
00000080: e20a 9c3e d923 033d bde9 673d b1e3 9b3a
00000090: d6ee d03d bccf 1f3d e75d 9d3e 89d9 573e
000000a0: daae c93e f828 f4bd 4901 733d ed1d 473e
000000b0: 94f5 e3bd 9785 5c3e efe9 833e 25d4 443e
000000c0: de92 f63c f044 c43d b91a ef3e 89ff 80bd
000000d0: d2ec bf3e dfa5 9c3e f104 6c3e f0aa d43e
000000e0: 6bf8 673d e257 88bc e706 083e 7c70 c13e
000000f0: f540 d93d e0c3 c23d 74f6 9b3e ea22 493d
00000100: b99f 533e 343f 6f3d 2092 a93d a65a 46bd
00000110: fedb d63d c6bf 483e 3967 0b3e 62d7 9d3e
00000120: 3507 13bc 6db4 cb3e 0bd8 e0be f422 663d
00000130: 4fb2 4d3e cf1a 4a3d 3a3f a83d 90d2 033d
00000140: 802f d33e d4e7 823e 796d 843e 862c 423e
00000150: d606 cc3e c8ad 62be 347a 523d 90bd bb3e
00000160: 196b 6f3e bf10 343e b2b5 fb3d 9c5e ea3e
00000170: cdf2 043f 66ca 2abc c975 063e ca17 a83e
00000180: 69f4 32bd 6a52 013e 2c95 403e 497e 8f3e
00000190: 54a5 3e3e b68e 16bd 4a9f ae3b e54a d33e
000001a0: 978c 483e d93d 5d3e a1af 663e 7a06 adbd
000001b0: 6275 c8bd 3545 8bbe e534 193f 86fe d4bb
000001c0: 046b ea3e dce2 8dbc 8d4b 0d3e 6a87 3a3e
000001d0: 6d0f d23e 3eae 3539 56f6 aebd ad67 af3d
000001e0: 5bff 093d 48d3 e93e a8e0 bb3e 3949 ac3e
000001f0: 33c7 0abd ce93 683e fd7f 953d a606 313e
00000200: 8d08 ccbd 7b9a 16be 540f 6bbd b1c6 123d
00000210: ce93 083e dfa1 0abd e09f cf3c da72 9bbd
00000220: 740c 5d3e 3a28 33bc 04c2 3b3d bde8 0ebe
00000230: 9e62 113e 80d8 86bc c33e 4a3e 3d1e 11be
00000240: ee82 04bd b62a 3dbe dc52 383d 50c4 2ebd
00000250: 05e5 853e c325 933d 597a 30bd 0e89 2bbe
00000260: dab3 7ebc b737 9f3d 380e b6be 188c 00bd
00000270: a1b8 51bd 33a8 2fbc 7ad1 0cbd b318 20be
00000280: cc1c 43bd ee36 893e 56b7 1d3d 759f 96bb
00000290: efe2 d23c c873 6cbc 23b8 edbb 678e 02bc
000002a0: 822a 6b3d 0bd2 dabd f937 49bd 1e08 9bbb
000002b0: 8d25 e0bd fc62 a6bc 36d0 b6bd bce6 813d
000002c0: eb8d 0bbd fffc 453e ded3 6abd 59af c93c
000002d0: 73af 57bd 41a0 32be 3047 1dbd 99d5 8bbb
000002e0: 60ea 363d 5176 8ebd aaa1 00bc 3802 fcbd
000002f0: 0478 77bd f3ba 55bd 66bc 323d 1ac1 153e
00000300: 82bf fc3c 913a 41bc 331e 99bb 85b1 653d
00000310: 885c 3bbc a317 28bd 58e5 a1bd ae41 863d
00000320: 4cd5 f2bd 1212 81bc 1ed9 ebbe 20ac 0bbd
00000330: 5d28 a63c b31c a9bb 2afb 4b3d ddd5 0bbe
00000340: 04a0 833d fe42 01be 8565 42bd ade8 2dbd
00000350: cce8 78bd e8c1 15bf 245b 8abc 6246 debd
00000360: 79f8 6e3c ec02 b73d e499 823e d6ae 3e3b
00000370: 2a55 133d 90f6 c9bc c1bd cbbc 5c8f d6bc
00000380: 58a6 5abd 25bd ab3c 5eb0 2b3d 78e2 b9be
00000390: 798d 253e 2340 5d3c 6820 aa3d 80ac b1bd
000003a0: 3ab6 1e3e 98ff 2bbd 518d 483d 9db1 3dbd
000003b0: fec4 a1bd 0b04 95be 2548 1e3f cb72 01bd
000003c0: 1fb3 3dbd f0e1 b2bd 470e c4be d3dd 15bd
000003d0: 5533 e5bd 38c5 a43c 33f8 4dbc 6545 0fbd
000003e0: 409c edbc 56bf 2abe 5bdf 793d 04d5 fdbd
000003f0: 8709 bdbc 62ad 4e3d 673d 90bc ca3a 3abc
-0.01448514 0.3497861 0.20199864 0.062490374 -0.00433328 0.007344371 0.40898266 -0.10117351
0.16729589 0.7114347 -0.04430467 0.18572213 0.14139064 0.77716136 0.16480953 0.3212113
0.49207234 0.37280357 0.06590258 0.1641561 0.29159263 0.5103341 0.06811635 -0.03878561
0.032208376 0.40386683 0.24398662 0.18895987 0.16287062 -0.035948794 0.05193463 -0.023554271
0.30477053 0.03201661 0.056619395 0.0011893419 0.10201804 0.03901647 0.30735704 0.21079077
0.39391214 -0.11921877 0.059327397 0.1944501 -0.11130825 0.21535335 0.25764415 0.19221552
0.030099329 0.09583461 0.46700075 -0.062987395 0.37485367 0.305953 0.2304876 0.41536665
0.056633394 -0.016643468 0.13283883 0.3778113 0.10608093 0.095100164 0.30461466 0.049105562
0.20666398 0.058409885 0.08279824 -0.048426293 0.10491179 0.19604406 0.13613595 0.30828387
-0.008973886 0.3978609 -0.43914828 0.056185678 0.2008755 0.049341973 0.082151845 0.03218323
0.41247177 0.25567496 0.2586477 0.18962297 0.39848965 -0.22136605 0.051386073 0.36668062
0.23380698 0.17584513 0.12290515 0.45775306 0.51932985 -0.010424232 0.13130869 0.3283065
-0.04369012 0.12629095 0.18806905 0.28026035 0.18617755 -0.036757194 0.0053290473 0.41268077
0.19584881 0.21605624 0.22527935 -0.08448501 -0.09788014 -0.27201238 0.59846336 -0.006500068
0.4578477 -0.017320089 0.13798352 0.18215719 0.41027394 0.00017326415 -0.085430786 0.085646965
0.03369079 0.45669007 0.36694837 0.33649614 -0.033881377 0.22712633 0.072998025 0.17287692
-0.099625684 -0.14707367 -0.057387665 0.03583402 0.13337633 -0.03384578 0.025344789 -0.075902656
0.21586782 -0.010934884 0.045839325 -0.1395597 0.14197776 -0.016460657 0.19750504 -0.14171691
-0.032351427 -0.18473324 0.045000896 -0.042667687 0.2615129 0.07184937 -0.04308543 -0.16751501
-0.01554581 0.07774299 -0.35557723 -0.031383604 -0.051201466 -0.010721254 -0.03437946 -0.15634422
-0.047634885 0.2679972 0.03850492 -0.0045966455 0.025742976 -0.014431901 -0.007254617 -0.007968522
0.057413585 -0.10684594 -0.049125645 -0.0047311923 -0.10944662 -0.020310871 -0.08926432 0.06342837
-0.03407089 0.19334792 -0.05733096 0.024619745 -0.052657556 -0.17443945 -0.038397968 -0.004267406
0.04465711 -0.06956161 -0.007851044 -0.12305111 -0.06041719 -0.05218024 0.043636702 0.14624444
0.030853037 -0.0117937485 -0.0046727895 0.0560775 -0.011435635 -0.041038167 -0.07905072 0.06555496
-0.118570894 -0.015755687 -0.46064085 -0.034099698 0.020282919 -0.005160892 0.049800076 -0.13655801
0.06427005 -0.12623212 -0.047460098 -0.042458225 -0.060768887 -0.58499 -0.016889162 -0.10853268
0.014585608 0.08936104 0.25508034 0.002909591 0.03596989 -0.024653703 -0.024870755 -0.026191406
-0.053381294 0.020964215 0.041916244 -0.36305594 0.16167249 0.013504061 0.08306962 -0.0867548
0.15499201 -0.0419918 0.048962895 -0.046311963 -0.078989014 -0.29104647 0.61828834 -0.031603616
-0.0463134 -0.087345004 -0.38292143 -0.0365885 -0.111914314 0.020113572 -0.012571382 -0.03497829
-0.02900517 -0.16674551 0.061004024 -0.12394145 -0.023075832 0.05045832 -0.017607404 -0.0113665555

bias f4 [64]
00000000: e0bf 70bd 23e0 37bd 132b 18bb d64e c2bd
00000010: 0cc6 0f3d 8fe2 46bd a430 37bd 353f b73c
00000020: ccb6 2ebd b952 02be e10f 07bd 93cd 5bbd
00000030: 9aae 813d 5353 bdbc 52c8 72bd 0c22 58bd
00000040: cf8a 91bd 6c0d d5bd 39e6 42bd 603a c3bc
00000050: ab60 6bbd 4a08 1f3d e458 9dbd 7330 c2bc
00000060: 2935 3cbd 0b1e 21bc 74f0 52bd 972b 06be
00000070: efab 733d d56a debb 1eaa 89bb 5c6f 98bd
00000080: ce90 ccbd 9f71 debd c6fe 11be 8745 b4bd
00000090: b412 b3bb bafb 1abe e2a1 1dbe 8049 373b
000000a0: d0e4 10be 33fd fabd eb3d 93bc 09e2 b3bd
000000b0: ea6d d13a da37 96bd e1c3 4ebd db71 a6bc
000000c0: 604d 05be 4d88 1bbe 4566 9fbd 8cb3 213d
000000d0: 2bd8 babd 8c14 a23b 2d32 32bd 7179 653d
000000e0: 0a3f af3c 3c87 52bd be16 44be 0f60 aabd
000000f0: 2977 ebbd e49b 95bd ae3d e2bd ab59 a2bc
-0.058776736 -0.044891488 -0.0023219034 -0.09487693 0.03510098 -0.048555907 -0.04472412 0.022369007
-0.042654797 -0.12726869 -0.032974128 -0.053662848 0.06332131 -0.023111021 -0.05927307 -0.052766845
-0.07106554 -0.10402951 -0.04758284 -0.023831546 -0.057465237 0.038826264 -0.0768297 -0.023704743
-0.045949135 -0.009833823 -0.051498845 -0.13102566 0.05949014 -0.0067876377 -0.0042011878 -0.07443115
-0.09988557 -0.10861515 -0.14257345 -0.08802324 -0.005464876 -0.15135089 -0.15393785 0.0027967393
-0.14149785 -0.12255325 -0.01797386 -0.08783347 0.0015978192 -0.073348716 -0.050479773 -0.020317962
-0.13017797 -0.15188713 -0.07783178 0.03947787 -0.09123262 0.004946297 -0.043504883 0.05602402
0.021392364 -0.0513985 -0.191493 -0.08319103 -0.11497337 -0.073051244 -0.11046921 -0.019818148
