mass_spectra_app/lstm_complete.pth (torch, 136192 bytes, 4 tensors)

weight_ih_l0 f4 [256, 64]
-0.11360447 0.2405509 -0.058081813 -0.07552485 0.09600975 0.022634353 0.072951294 -0.062174495
-0.030653162 -0.06596163 0.022656428 -0.050526656 -0.06831286 -0.15716179 -0.037504584 -0.015565753
-0.0043318365 0.015397136 -0.09620416 -0.06799028 0.01758641 -0.12841895 -0.09439554 0.15607588
0.11998118 -0.008331089 -0.04610576 -0.0032705248 0.098957404 -0.071312696 0.13597801 0.012301293
-0.041255586 -0.121672206 -0.111783594 0.035985317 -0.036830626 0.054866314 0.11611706 -0.08271472
0.11156437 0.027717173 0.091404796 -0.05293051 -0.04933443 0.06297771 0.066495955 -0.057204787
0.06780994 -0.031078607 -0.07879476 0.03666079 -0.10970708 0.061528537 -0.09045534 -0.017749706
-0.009546576 0.1571879 -0.12606621 -0.20096879 0.048003808 -0.016552174 -0.02438257 0.047052383
-0.0015410417 -0.015484638 -0.061444115 -0.01109044 0.00888615 -0.046033848 0.01586656 -0.07063822
0.03400502 -0.029372796 0.013468011 0.037856452 -0.035499256 -0.2803948 0.0054771416 -0.079491824
-0.008969028 -0.023735052 -0.11732879 0.057369284 0.04971848 0.16757976 -0.053700607 -0.020540893
-0.11899723 -0.028271792 0.0679101 -0.054489963 -0.105219156 0.054278664 -0.107875176 0.011710397
-0.016902886 0.012490083 0.048302073 -0.11402537 0.08085503 -0.004132107 -0.05552824 0.02296444
-0.018119844 -0.054385196 -0.029879443 0.08845105 -0.04273466 -0.057441697 -0.09488104 -0.02056169
0.033734933 0.069436505 -0.02481646 -0.04422778 -0.013344614 -0.09152958 -0.048391864 0.038530376
-0.036885902 0.35047537 0.0955046 -0.070281714 0.060558863 -0.0023701615 -0.3328328 -0.08735946
-0.018761963 0.007291725 0.012265626 0.09673605 -0.16978216 0.023419853 -0.07688828 0.049857326
0.024207195 0.0532099 -0.028880345 0.03744542 -0.08399483 0.14187017 0.06730449 0.07485625
-0.058151223 -0.0019920825 -0.10747711 -0.06714196 -0.047788512 0.17087993 -0.033391777 -0.040530518
0.07025137 0.052691005 0.020113433 -0.030931767 0.11113712 -0.07166941 -0.02348188 -0.05829964
0.001840399 -0.0025109625 0.10645155 -0.0990879 0.09131885 -0.030740187 -0.17161484 0.0851495
0.11095619 -0.057993174 0.08497307 0.006592583 0.047075517 0.051938992 -0.14510767 0.059821658
0.017307684 0.055052444 -0.0020820373 0.06478868 -0.05400913 0.022516226 -0.1034752 0.033635627
-0.0067448863 -0.036232885 0.06366487 -0.005693584 -0.08834885 0.009624197 0.151661 -0.032347765
0.017468167 0.13145183 0.18074933 0.06848231 0.08562945 0.11108188 -0.05119598 -0.28441936
-0.049647275 0.0995173 0.11320904 0.037320804 -0.021661354 -0.36962843 -0.07049845 -0.07016452
0.048722442 0.22572488 -0.1025625 0.16452628 0.24403186 0.5198793 0.14653333 0.10898332
0.020324439 -0.045995478 0.040566146 0.13759619 -0.090929866 0.22654057 0.055569686 -0.02927944
0.11920924 0.16121784 0.072369434 0.15775986 0.013332582 0.015029937 0.10028937 0.032942954
-0.038801543 0.03060725 0.1138106 0.15096486 -0.52335745 0.0391204 0.043861967 0.07008814
0.07816915 -0.077515386 0.13297969 0.12028731 0.1577929 0.1047365 0.25218263 0.009734268
0.14364384 -0.3305122 0.12190995 0.18021215 0.2046657 -0.07457999 0.047744185 0.108852185
00000000: 76a9 e8bd fa52 763e 32e7 6dbd c6ac 9abd
00000010: c3a0 c43d ae6b b93c 7d67 953d afaa 7ebd
00000020: 571c fbbc e416 87bd f999 b93c 0af5 4ebd
00000030: 9de7 8bbd 05ef 20be 689e 19bd 8007 7fbc
00000040: 14f2 8dbb 4544 7c3c b006 c5bd 7d3e 8bbd
00000050: 6011 903c 4280 03be 7352 c1bd 5bd2 1f3e
00000060: b1b8 f53d 1f7f 08bc 65d9 3cbd 4d56 56bb
00000070: 2eaa ca3d 640c 92bd d23d 0b3e 5d8b 493c
00000080: 9efb 28bd 472f f9bd ccee e4bd 5765 133d
00000090: b6db 16bd 80bb 603d c8ce ed3d 5666 a9bd
000000a0: dc7b e43d 200f e33c 7032 bb3d aacd 58bd
000000b0: e612 4abd 75fa 803d 082f 883d 914f 6abd
000000c0: f0df 8a3d 9098 febc 265f a1bd a029 163d
000000d0: 1bae e0bd 5905 7c3d a640 b9bd d567 91bc
000000e0: 3e69 1cbc ddf5 203e 8017 01be c3ca 4dbe
000000f0: a49f 443d 6d98 87bc f5bd c7bc 00ba 403d
00000100: c7fc c9ba 47b3 7dbc d3ac 7bbd adb4 35bc
00000110: 3797 113c fd8d 3cbd 97fa 813c c5aa 90bd
00000120: d948 0b3d 389f f0bc efa8 5c3c 5e0f 1b3d
00000130: ab67 11bd e88f 8fbe 9879 b33b 9ccc a2bd
00000140: d4f2 12bc 0370 c2bc 144a f0bd 0efc 6a3d
00000150: 9ba5 4b3d 079a 2b3e 2bf5 5bbd 6045 a8bc
00000160: d2b4 f3bd 3f9a e7bc 7314 8b3d de30 5fbd
00000170: 247d d7bd 4e53 5e3d a9ed dcbd f7dc 3f3c
00000180: ec77 8abc 35a3 4c3c 65d8 453d 2286 e9bd
00000190: 5297 a53d a066 87bb 9471 63bd ec1f bc3c
000001a0: 1170 94bc 03c3 5ebd bcc5 f4bc d325 b53d
000001b0: 8a0a 2fbd fc47 6bbd fe50 c2bd fd70 a8bc
000001c0: a42d 0a3d ba34 8e3d e44b cbbc 3028 35bd
000001d0: 5ea3 5abc dc73 bbbd 8c36 46bd 07d2 1d3d
000001e0: ac15 17bd 8271 b33e ea97 c33d dcef 8fbd
000001f0: 920c 783d b654 1bbb 1069 aabe 84e9 b2bd
00000200: b0b2 99bc 6cef ee3b c4f5 483c 8d1d c63d
00000210: 60db 2dbe feda bf3c 9a77 9dbd 3237 4c3d
00000220: 2b4e c63c a0f2 593d 7996 ecbc 5e60 193d
00000230: 7b05 acbd 6a46 113e f0d6 893d 3c4e 993d
00000240: fa2f 6ebd 998d 02bb f61c dcbd b981 89bd
00000250: e3bd 43bd 26fb 2e3e d1c5 08bd 5403 26bd
00000260: f3df 8f3d 86d2 573d edc4 a43c 9e64 fdbc
00000270: dc9b e33d 69c7 92bd 125d c0bc 9acb 6ebd
00000280: 8b39 f13a f68e 24bb 4503 da3d 99ee cabd
00000290: 6105 bb3d d8d2 fbbc cdbb 2fbe dc62 ae3d
000002a0: 003d e33d 408a 6dbd 5c06 ae3d 9806 d83b
000002b0: 42d2 403d fbbd 543d 1b97 14be 8e07 753d
000002c0: d8c8 8d3c ac7e 613d ca72 08bb edaf 843d
000002d0: ad38 5dbd f373 b83c ceea d3bd 83c5 093d
000002e0: 3504 ddbb ef68 14bd ba62 823d 3f91 babb
000002f0: 3ef0 b4bd cfae 1d3c 054d 1b3e 177f 04bd
00000300: 6719 8f3c 4f9b 063e 5a16 393e 7440 8c3d
00000310: 7e5e af3d e67e e33d e0b2 51bd 6a9f 91be
00000320: f15a 4bbd bacf cb3d 24da e73d b3dd 183d
00000330: 2773 b1bc f03f bdbe 7e61 90bd 6ab2 8fbd
00000340: 2f91 473d 6c24 673e 4a0c d2bd 9479 283e
00000350: 7de3 793e cf16 053f d50c 163e a632 df3d
00000360: 707f a63c c165 3cbd b028 263d 04e6 0c3e
00000370: 7039 babd 40fa 673e 0a9d 633d 70db efbc
00000380: f923 f43d 4a16 253e 6d36 943d cd8b 213e
00000390: e770 5a3c 2040 763c 8364 cd3d 31ef 063d
000003a0: 5eee 1ebd 0ebc fa3c 8815 e93d 8896 1a3e
000003b0: c1fa 05bf b63c 203d 9ba8 333d 5f8a 8f3d
000003c0: 2617 a03d 63c0 9ebd d42b 083e 3159 f63d
000003d0: 7694 213e 1780 d63d 151e 813e 7b7c 1f3c
000003e0: 5f17 133e e538 a9be edab f93d 8989 383e
000003f0: e393 513e 65bd 98bd 688f 433d e5ed de3d

weight_hh_l0 f4 [256, 64]
0.04876559 -0.09701225 0.008782741 0.103388466 0.07348341 -0.076386355 0.02040325 0.03223519
0.12791738 0.09039185 -0.0009000576 0.040708475 0.047492877 0.059405655 -0.123475835 0.105339155
0.09770947 -0.10257484 -0.011495841 -0.069949955 0.061579257 -0.03473479 0.12798865 0.14049736
0.013324584 0.07245008 0.07850664 -0.06770868 0.0634414 0.10291643 0.08693302 0.09466191
-0.021284418 -0.025918327 0.007818346 0.09026271 -0.027054312 0.08546382 0.007601756 -0.09657622
0.0070805857 0.02619388 -0.09638792 -0.12902841 -0.103062786 0.118488505 -0.037854843 0.10743388
0.037884563 -0.025654512 -0.013248757 0.09593844 -0.088606946 -0.024195256 -0.11750647 0.017778307
-0.077661686 0.023740305 0.09005176 -0.056228187 0.09096328 0.04000842 -0.029166877 -0.01291997
-0.13776937 0.096876346 0.07017756 0.07180135 -0.014513758 -0.021706643 -0.08067906 -0.003409916
-0.013447811 -0.05440591 -0.074079774 0.10521374 0.048750736 -0.117863305 -0.0021047376 -0.087707266
-0.022159176 -0.069392934 -0.056325622 -0.13329156 0.05312055 -0.002336324 0.035953194 -0.010178507
0.024317184 0.047967523 -0.053274285 -0.0053565195 0.014958022 0.020031096 -0.10762158 -0.00016645718
0.061469205 -0.10167515 0.048889384 -0.062269624 0.09500124 -0.081111476 0.08724539 -0.116798714
-0.010382308 0.068166025 0.013159016 0.10803197 0.032952346 -0.052033566 0.08275109 0.10897642
0.066280894 0.096297115 -0.05501353 -0.11357752 0.10167378 0.041768286 -0.06941061 0.11106162
-0.093529426 0.08915283 0.012805629 -0.06948897 -0.10043807 0.12080076 -0.011404071 -0.010428592
0.03811312 -0.09040244 0.00941442 -0.019951938 0.14675486 -0.08372964 0.102700055 -0.14828758
0.08365235 0.0029402461 -0.04649524 -0.007654431 -0.032617386 -0.004753323 -0.10555332 0.033037033
0.13427858 -0.11580458 0.04266896 -0.11955593 0.11337236 -0.036480077 -0.0028730258 0.10137679
-0.008936589 -0.03770993 -0.0063342624 0.10848741 -0.052156553 -0.05034504 -0.008557715 0.040599447
-0.0850803 0.028442381 0.13128842 -0.07320622 -0.011675501 0.06366553 -0.050031792 0.077355936
-0.035574023 -0.034040533 -0.0565024 -0.074009314 0.04122405 -0.072229005 0.03557075 0.044455227
0.17472403 -0.060865328 -0.099894166 0.111535504 -0.07744042 0.038451992 0.036667038 -0.03335941
-0.042234253 -0.00909674 -0.10869322 -0.006377795 -0.023964414 0.09851039 -0.11114212 0.0687097
-0.074956745 -0.12836348 -0.08319285 -0.041121457 0.02655096 0.15689078 -0.029909957 0.050177153
0.107249245 0.013869026 -0.13571553 0.14055462 -0.01868168 -0.24202046 -0.08683326 -0.013260305
0.10220827 0.013480929 -0.03919638 0.12870339 0.051787637 -0.040739 -0.018116524 0.013953713
-0.06195195 -0.10636922 0.16428728 -0.04314615 -0.001707994 0.14295028 0.11383326 0.074870676
0.15307589 0.13817407 0.02488225 0.052964274 0.016974967 -0.024761785 -0.014865555 -0.025592767
-0.02725886 -0.107115544 -0.026924692 0.068875775 -0.0050590425 0.027809607 -0.0014433101 -0.013215291
0.05926073 -0.09187301 0.09411859 0.07611081 -0.07148775 0.10619881 0.02864899 0.103858255
-0.12212055 0.0039737415 -0.067469686 -0.054627717 -0.051473178 -0.13010207 -0.04032146 -0.049925994
00000000: 6dbe 473d 5cae c6bd 7ce5 0f3c 55bd d33d
00000010: 787e 963d 7370 9cbd b724 a73c 0c09 043d
00000020: c6fc 023e 5d1f b93d d8f1 6bba eebd 263d
00000030: e487 423d 5853 733d e6e0 fcbd 0ebc d73d
00000040: e71b c83d c212 d2bd 0d59 3cbc ec41 8fbd
00000050: 883a 7c3d 1146 0ebd 750f 033e 8ade 0f3e
00000060: 5b4f 5a3c b560 943d 17c8 a03d d9aa 8abd
00000070: 91ed 813d d9c5 d23d f009 b23d 1ade c13d
00000080: a95c aebc ac52 d4bc 8518 003c a8db b83d
00000090: 01a1 ddbc a807 af3d 2718 f93b c1c9 c5bd
000000a0: 4204 e83b 8c94 d63c 0867 c5bd 0620 04be
000000b0: 9512 d3bd 1aaa f23d ae0d 1bbd 4b06 dc3d
000000c0: d82c 1b3d 6929 d2bc 5111 59bc 5f7b c43d
000000d0: 8f77 b5bd 2135 c6bc 3ba7 f0bd d0a3 913c
000000e0: 170d 9fbd 077b c23c 0f6d b83d 874f 66bd
000000f0: f54a ba3d dedf 233d 60ef eebc 48ae 53bc
00000100: 6a13 0dbe 1b67 c63d 41b9 8f3d 960c 933d
00000110: 1dcb 6dbc 21d2 b1bc 103b a5bd e678 5fbb
00000120: 3554 5cbc bbd8 5ebd 23b7 97bd 4d7a d73d
00000130: daae 473d 5162 f1bd a3ef 09bb de9f b3bd
00000140: 2987 b5bc e21d 8ebd b2b5 66bd 957d 08be
00000150: ef94 593d 031d 19bb a843 133d c1c3 26bc
00000160: d534 c73c 9879 443d 2336 5abd be85 afbb
00000170: 7e12 753c 4118 a43c b468 dcbd 028b 2eb9
00000180: 22c7 7b3d 103b d0bd 3c40 483d 6f0e 7fbd
00000190: 0390 c23d c61d a6bd b6ad b23d 2a34 efbd
000001a0: 8e1a 2abc a19a 8b3d ea98 573c de3f dd3d
000001b0: 0af9 063d 2621 55bd 6779 a93d 072f df3d
000001c0: 47be 873d 6c37 c53d de55 61bd 559b e8bd
000001d0: 583a d03d 3915 2b3d 2627 8ebd 4674 e33d
000001e0: 5b8c bfbd c295 b63d b3ce 513c 3c50 8ebd
000001f0: 7ab2 cdbd 6466 f73d 24d8 3abc afdc 2abc
00000200: 811c 1c3d ea24 b9bd f13e 1a3c 3f72 a3bc
00000210: e846 163e 727a abbd 6854 d23d b3d8 17be
00000220: ec51 ab3d 25b1 403b cb71 3ebd 05d2 fabb
00000230: cf99 05bd c3c1 9bbb 572c d8bd d751 073d
00000240: 5380 093e f42a edbd a6c5 2e3d bdd9 f4bd
00000250: c52f e83d 226c 15bd 6049 3cbb a29e cf3d
00000260: c56a 12bc ba75 1abd a58f cfbb a62e de3d
00000270: 1ca2 55bd 9a36 4ebd a935 0cbc 9b4b 263d
00000280: 953e aebd ffff e83c 7970 063e 25ed 95bd
00000290: 9a4a 3fbc 1363 823d 23ee 4cbd ca6c 9e3d
000002a0: 11b6 11bd 166e 0bbd 106f 67bd 3292 97bd
000002b0: 8dda 283d cdec 93bd a2b2 113d af16 363d
000002c0: dbea 323e ec4d 79bd 5095 ccbd ba6c e43d
000002d0: 1599 9ebd d67f 1d3d 2d30 163d e0a3 08bd
000002e0: d3fd 2cbd 7e0a 15bc 8d9a debd d2fc d0bb
000002f0: 0551 c4bc d1bf c93d 7b9e e3bd acb7 8c3d
00000300: ec82 99bd b771 03be 0361 aabd f96e 28bd
00000310: 6681 d93c faa7 203e ba05 f5bc 8f86 4d3d
00000320: 7ea5 db3d e93a 633c 03f9 0abe 8ded 0f3e
00000330: 530a 99bc 36d4 77be a3d5 b1bd c041 59bc
00000340: 9252 d13d 1ddf 5c3c 628c 20bd d2ca 033e
00000350: 461f 543d f0dd 26bd 1b69 94bc 1d9e 643c
00000360: 54c1 7dbd 1bd8 d9bd ed3a 283e 04ba 30bd
00000370: c5de dfba 8f61 123e 6a21 e93d cc55 993d
00000380: edbf 1c3e 817d 0d3e dcd5 cb3c 11f1 583d
00000390: 160f 8b3c 3ad9 cabc a88e 73bc eca7 d1bc
000003a0: f94d dfbc 655f dbbd 2c91 dcbc be0e 8d3d
000003b0: 53c6 a5bb f9d0 e33c 732d bdba f384 58bc
000003c0: 61bb 723d eb27 bcbd 3fc1 c03d fcdf 9b3d
000003d0: 2b68 92bd c37e d93d 49b1 ea3c a3b3 d43d
000003e0: 571a fabd 2936 823b 8c2d 8abd 50c1 5fbd
000003f0: 8ad5 52bd 7a39 05be 1e28 25bd 337f 4cbd

bias_ih_l0 f4 [256]
0.04097956 -0.1069224 0.036158897 -0.04207009 0.023137113 -0.09131998 -0.11213706 0.056096014
-0.06320616 0.06527395 -0.07799921 -0.0716141 0.12841344 0.11955548 -0.08502554 0.01650472
0.07784563 0.13286707 -0.06397717 0.022104654 -0.045681022 -0.06591615 -0.0020223407 0.010257225
-0.13812432 -0.05039503 0.045649834 -0.075757466 0.025392253 -0.062303897 -0.10832371 0.0053445273
-0.056795623 0.048038617 -0.011544894 0.00392124 -0.04800053 -0.11815495 -0.029328434 -0.059103765
0.08012798 -0.10365946 0.07724375 0.05194881 0.09181073 0.04571572 0.040219154 -0.041056402
0.083443 0.0586442 0.0005406809 -0.08635018 0.12645575 -0.00064162543 -0.008247051 0.07629083
0.097172335 0.14699227 -0.045335177 -0.032345936 -0.058263745 0.08953762 -0.07558715 -0.050773934
0.12679513 -0.06899286 -0.03318036 -0.032916605 0.0032611166 0.08707326 0.15319939 0.022009492
-0.044565357 -0.06653327 0.14582951 -0.0054127406 0.07739325 -0.013902087 -0.09460812 0.14703122
0.015846774 -0.044392742 0.09138476 0.07742 0.027508244 0.09176729 -0.048881836 -0.039977934
0.059569664 0.021102818 -0.06182849 0.027629858 0.12551668 -0.00015945901 -0.02673015 -0.06072433
0.09270632 0.14806433 -0.011328713 -0.114948936 -0.04283165 0.015749551 -0.008776612 -0.10096072
-0.015583387 -0.06698761 0.046244085 0.040994678 0.016300024 0.17479222 0.08659947 0.0067579206
-0.084432155 0.13570689 -0.08847973 0.07115802 0.12558481 0.16182536 0.038980953 -0.10210498
0.028843818 0.20217796 0.0995762 -0.014404185 -0.020997806 -0.030513793 -0.053122945 0.11383365
0.06661613 -0.047381844 0.022424553 0.113229625 -0.13457842 -0.08419232 0.09145814 -0.18336706
0.067752264 -0.15749757 -0.07006134 -0.09789354 -0.1432533 0.07625306 -0.16169275 -0.08020346
0.090290666 0.052461088 0.08343661 0.07516722 -0.047864337 0.059633624 -0.06538399 0.050990775
0.13064294 -0.14367805 0.1476077 0.17663252 0.12162197 0.016133552 -0.05912273 0.0688857
0.039076768 0.061232243 0.12737095 0.0033473081 -0.073188394 -0.06562719 -0.097145095 -0.016119866
0.1066622 0.13225202 0.03849595 0.030534985 0.00041100115 -0.010563349 0.08043993 0.04810818
0.075502686 -0.099198766 -0.043443084 -0.11739154 0.14844033 -0.08925559 -0.10855939 -0.022407684
0.09997456 0.02529472 -0.036523156 0.17975247 0.13387589 0.11471553 -0.06550109 0.03985525
-0.06291833 -0.1149233 0.014458786 0.028729763 -0.023522967 0.015542534 0.091224924 -0.114789955
-0.055420678 -0.034865744 0.06631677 -0.029190328 0.063652985 -0.049995806 0.016032508 -0.0734189
0.06418331 0.09136607 0.02641035 0.04380434 0.044742882 0.078877605 -0.005295268 0.14545625
0.026683664 0.13865298 -0.019399848 -0.004579914 0.06517934 -0.08814767 -0.045006204 0.122151315
-0.08885802 -0.03609801 0.008700382 -0.11756907 0.04600858 0.09617907 0.18713394 0.09698912
-0.0046345494 0.0444514 0.004570937 -0.05789883 -0.05806115 0.0667108 -0.03379341 0.06430672
0.039506417 0.11623433 -0.14568713 -0.065861665 0.13837412 0.16532381 -0.05394365 -0.09339517
-0.05689152 0.01025562 0.0048205173 -0.07814685 0.0968018 0.11582528 -0.11459824 0.023795336
00000000: 2fda 273d 22fa dabd 5a1b 143d b051 2cbd
00000010: 0b8a bd3c f805 bbbd 1da8 e5bd efc4 653d
00000020: 3b72 81bd 59ae 853d 0dbe 9fbd 6aaa 92bd
00000030: d07e 033e 81d9 f43d df21 aebd e834 873c
00000040: 886d 9f3d 4e0e 083e 7606 83bd d214 b53c
00000050: 061c 3bbd 0cff 86bd 3f89 04bb eb0d 283c
00000060: 7670 0dbe 056b 4ebd 52fb 3a3d bb26 9bbd
00000070: 6a03 d03c 5f32 7fbd d2d8 ddbd 2521 af3b
00000080: 87a2 68bd 24c4 443d cc26 3dbc bf7d 803b
00000090: 349c 44bd 39fb f1bd 2f42 f0bc ca16 72bd
000000a0: 231a a43d 694b d4bd f931 9e3d 47c8 543d
000000b0: 4407 bc3d 6840 3b3d d7bc 243d c22a 28bd
000000c0: 2ae4 aa3d e734 703d 7bbc 0d3a 5dd8 b0bd
000000d0: 9e7d 013e c132 28ba a41e 07bc 5e3e 9c3d
000000e0: 4a02 c73d 2485 163e 61b1 39bd 2c7d 04bd
000000f0: f7a5 6ebd 805f b73d 70cd 9abd 54f8 4fbd
00000100: 95d6 013e 214c 8dbd 21e8 07bd 90d3 06bd
00000110: 75b8 553b 7753 b23d 4de0 1c3e 404d b43c
00000120: 2a8a 36bd 9842 88bd 5554 153e 5c5d b1bb
00000130: 5a80 9e3d 94c5 63bc e7c1 c1bd 5a8f 163e
00000140: 18d1 813c 2ad5 35bd ef27 bb3d 618e 9e3d
00000150: f858 e13c 7df0 bb3d 5238 48bd e7bf 23bd
00000160: 52ff 733d d1df ac3c df3f 7dbd 0358 e23c
00000170: 7287 003e 7434 27b9 30f9 dabc 13ba 78bd
00000180: d0dc bd3d 2d9e 173e 119c 39bc 596a ebbd
00000190: 3d70 2fbd 3405 813c c7cb 0fbc 7ec4 cebd
000001a0: 7651 7fbc cd30 89bd 706a 3d3d 09ea 273d
000001b0: a187 853c bbfc 323e 105b b13d 8c71 dd3b
000001c0: c4ea acbd bff6 0a3e dc34 b5bd 4cbb 913d
000001d0: 4e99 003e 8cb5 253e 7eaa 1f3d 6a1c d1bd
000001e0: df49 ec3c bd07 4f3e 9bee cb3d 88ff 6bbc
000001f0: 9703 acbc 10f8 f9bc 7297 59bd 9e21 e93d
00000200: 0a6e 883d 7713 42bd b2b3 b73c efe4 e73d
00000210: edce 09be 066d acbd 684e bb3d 93c4 3bbe
00000220: b3c1 8a3d 0b47 21be 527c 8fbd 697c c8bd
00000230: feb0 12be 902a 9c3d c992 25be b641 a4bd
00000240: 50ea b83d 70e1 563d d0e0 aa3d 45f1 993d
00000250: 650d 44bd 6342 743d 0be8 85bd b4db 503d
00000260: 43c7 053e 5720 13be 7926 173e 28df 343e
00000270: f014 f93d 832a 843c ad2a 72bd f213 8d3d
00000280: f60e 203d a9ce 7a3d 886d 023e 835e 5b3b
00000290: cce3 95bd 8c67 86bd 02f4 c6bd cf0d 84bc
000002a0: b671 da3d 136d 073e eead 1d3d 8124 fa3c
000002b0: a47b d739 e611 2dbc b1bd a43d 150d 453d
000002c0: 27a1 9a3d b928 cbbd 60f1 31bd fa6a f0bd
000002d0: be00 183e a3cb b6bd 6354 debd 5290 b7bc
000002e0: 76bf cc3d df36 cf3c 4e99 15bd 0811 383e
000002f0: c316 093e faef ea3d 6f25 86bd 423f 233d
00000300: 53db 80bd e85c ebbd 8be4 6c3c ae5a eb3c
00000310: 3db3 c0bc 1da6 7e3c 22d4 ba3d ff16 ebbd
00000320: cb00 63bd 62cf 0ebd 16d1 873d 8e20 efbc
00000330: 7f5c 823d 67c8 4cbd 9b56 833c a65c 96bd
00000340: 8a72 833d 221e bb3d 855a d83c 2e6c 333d
00000350: 5044 373d 958a a13d ed83 adbb 7cf2 143e
00000360: b397 da3c 0cfb 0d3e 6eec 9ebc 1a13 96bb
00000370: bf7c 853d c486 b4bd 6d58 38bd 782a fa3d
00000380: 32fb b5bd 82db 13bd 0c8c 0e3c 0dc8 f0bd
00000390: 7e73 3c3d 88f9 c43d 0aa0 3f3e 3ba2 c63d
000003a0: 6bdd 97bb ac12 363d ccc7 953b 5327 6dbd
000003b0: 87d1 6dbd ac9f 883d f56a 0abd 3eb3 833d
000003c0: 7bd1 213d 440c ee3d 022f 15be 7be2 86bd
000003d0: f2b1 0d3e a54a 293e 04f4 5cbd f845 bfbd
000003e0: 1507 69bd 3007 283c 6ef5 9d3b 750b a0bd
000003f0: 0640 c63d ce35 ed3d 7bb2 eabd 70ee c23c

bias_hh_l0 f4 [256]
0.043856177 -0.033728257 0.08348078 0.14489321 0.08256179 -0.11466643 -0.10766824 -0.00944875
0.08968157 0.024465565 -0.0397978 0.06361859 0.07346698 0.059236813 -0.071963914 0.06906295
-0.10533327 0.15691327 -0.0702932 0.12923326 -0.026957478 -0.087113515 -0.10607465 0.13986443
-0.012758329 -0.0076698214 0.005809562 0.01691344 -0.019886753 -0.12732166 0.012926146 0.032639053
0.10557535 -0.076705895 0.12932871 0.08397533 0.07222618 -0.12951756 0.0077418047 0.090348005
0.07861814 0.0034767666 -0.1085898 0.10022176 -0.067878306 0.1334338 0.00971072 0.08306447
-0.079109766 0.12368225 -0.12957442 -0.15614313 0.054428272 0.16754517 -0.14822881 -0.0040781423
0.01724601 -0.005822715 0.0022411798 -0.09487928 -0.010429551 -0.02221105 -0.098532744 0.12326956
0.065448456 0.010163585 0.04836572 -0.037825588 0.13214079 0.08172219 -0.019203953 -0.019309962
0.08645226 -0.0073305788 0.059618857 -0.040258992 -0.06661944 0.14098626 0.10851413 0.13830397
0.09209139 0.024196316 -0.041883066 0.046608273 -0.060532317 -0.08401284 0.062129308 0.099113144
-0.06678901 0.12385608 -0.07785579 0.03739528 0.08716833 0.0031186177 0.045728043 0.023077399
-0.017528089 -0.07558931 0.18928201 0.064871885 0.14708169 -0.042931527 -0.016062818 -0.04456673
-0.066495284 0.10101801 0.10469295 -0.030348927 -0.07409619 0.026845858 0.09043649 0.086301416
-0.09589341 0.036736634 -0.07226895 0.08583203 -0.09344525 0.2363166 0.07049325 0.081983015
0.06643471 0.043119345 -0.036243074 0.045682434 0.017571747 0.08424588 0.03348337 -0.006991025
-0.011776497 -0.07383586 0.05973439 0.12916657 -0.015151818 -0.0014338032 0.01884023 -0.19479623
-0.016026089 -0.1802342 0.11223863 -0.006701025 -0.12746595 -0.053492725 -0.0867844 -0.009113444
0.10744548 -0.024117049 -0.04175785 -0.051841184 0.12935567 0.086345844 -0.07934274 -0.15485968
0.017045105 -0.15571317 0.15901193 0.041934397 -0.016966417 -0.011101288 -0.07266037 0.09595638
-0.0936652 -0.042583287 -0.010224918 -0.049521964 -0.035535257 0.07438433 0.0038217234 0.08575479
-0.03426722 0.056756735 0.044416126 0.062146638 0.1215916 -0.08511861 0.06610135 -0.050765637
-0.021823918 -0.08684327 0.0028900912 -0.022816014 0.14190611 -0.046536174 0.08116348 -0.01161534
0.11470178 0.03919272 -0.15761094 0.11318578 0.08263989 0.09858659 -0.060704924 -0.04649338
0.14308693 0.034595694 -0.094103985 -0.07954599 -0.09717001 -0.15778375 -0.1066478 -0.1353306
0.021317447 0.06822243 0.026754027 -0.026222156 0.078938976 0.0011184571 -0.005299037 0.0029455868
0.022549126 0.101978496 -0.091686 0.040075567 -0.11654862 0.07969356 0.056851014 0.014739826
0.055070527 0.15640242 0.11524178 -0.06765203 0.045575768 -0.12934078 -0.037833903 0.121199176
0.056487016 -0.06375528 0.13637674 -0.042303976 0.15862457 0.04967627 0.014609079 -0.09018229
0.047075994 -0.010139949 -0.10501488 -0.057719585 0.09045254 0.08461123 0.065822005 0.053925976
0.13778858 0.119367875 -0.027465465 0.054413736 -0.0697631 0.052101728 0.044806443 0.020329107
-0.0890543 0.0043075904 0.07251791 -0.023777025 -0.08543709 0.106454484 0.109245546 0.039339524
00000000: 89a2 333d a426 0abd f9f7 aa3d e35e 143e
00000010: 2816 a93d 3cd6 eabd 2b81 dcbd eece 1abc
00000020: f9aa b73d 026c c83c 0503 23bd 774a 823d
00000030: db75 963d 4da2 723d d161 93bd e070 8d3d
00000040: f8b8 d7bd dfad 203e e2f5 8fbd b955 043e
00000050: eed5 dcbc 9268 b2bd ab3d d9bd 9f38 0f3e
00000060: 4f08 51bc 2053 fbbb 235e be3b 0e8e 8a3c
00000070: 8be9 a2bc 9c60 02be 30c8 533c 87b0 053d
00000080: e437 d83d fb17 9dbd bf6e 043e 42fb ab3d
00000090: 52eb 933d 40a0 04be f7ae fd3b 6008 b93d
000000a0: 8c02 a13d 77da 633b 5464 debd 1141 cd3d
000000b0: c803 8bbd dfa2 083e b619 1f3c b41d aa3d
000000c0: 4d04 a2bd 1f4d fd3d 28af 04be fce3 1fbe
000000d0: 2ef0 5e3d f690 2b3e 4bc9 17be f0a1 85bb
000000e0: 8147 8d3c 79cc bebb c2e0 123b 1150 c2bd
000000f0: b5e0 2abc f3f3 b5bc 89cb c9bd c074 fc3d
00000100: d709 863d 2a85 263c 221b 463d 01ef 1abd
00000110: ea4f 073e f75d a73d 9c51 9dbc ed2f 9ebc
00000120: e20d b13d 5a35 f0bb e732 743d 9de6 24bd
00000130: c66f 88bd b45e 103e a83c de3d 8e9f 0d3e
00000140: 699a bc3d 5a37 c63c 948d 2bbd 51e8 3e3d
00000150: bcf0 77bd ed0e acbd 4d7b 7e3d d5fb ca3d
00000160: adc8 88bd 42a8 fd3d db72 9fbd cb2b 193d
00000170: 4f85 b23d b961 4c3b 544d 3b3d d00c bd3c
00000180: 1197 8fbc 91ce 9abd 25d3 413e 8ddb 843d
00000190: 959c 163e f8d8 2fbd 2c96 83bc 9a8b 36bd
000001a0: ae2e 88bd 88e2 ce3d 4269 d63d 509e f8bc
000001b0: bebf 97bd d8eb db3c c436 b93d ccbe b03d
000001c0: c463 c4bd 2779 163d be01 94bd b4c8 af3d
000001d0: 3960 bfbd fbfc 713e c45e 903d b6e6 a73d
000001e0: ec0e 883d e99d 303d 9e73 14bd 811d 3b3d
000001f0: a0f2 8f3c 1b89 ac3d dc25 093d f814 e5bb
00000200: 35f2 40bc 4137 97bd 0cac 743d 3e44 043e
00000210: 553f 78bc 74ee bbba d356 9a3c aa78 47be
00000220: 2549 83bc 508f 38be 5edd e53d 4694 dbbb
00000230: 6f86 02be 301b 5bbd 05bc b1bd 8e50 15bc
00000240: 600c dc3d 1e91 c5bc 480a 2bbd 6c57 54bd
00000250: d075 043e 17d6 b03d 727e a2bd 8993 1ebe
00000260: 2da2 8b3c 4673 1fbe 06d4 223e 67c3 2b3d
00000270: 28fd 8abc 2de2 35bc f6ce 94bd c784 c43d
00000280: 8ad3 bfbd d06b 2ebd 6a86 27bc 8bd7 4abd
00000290: 6b8d 11bd d056 983d e175 7a3b 35a0 af3d
000002a0: c95b 0cbd c079 683d afed 353d 798d 7e3d
000002b0: 0405 f93d aa52 aebd 2560 873d a1ef 4fbd
000002c0: 13c8 b2bc e2da b1bd af67 3d3b a6e8 babc
000002d0: d64f 113e b79c 3ebd 0a39 a63d 444e 3ebc
000002e0: c4e8 ea3d 8c88 203d c364 21be f2cd e73d
000002f0: 1a3f a93d c4e7 c93d baa5 78bd d86f 3ebd
00000300: 6185 123e 37b4 0d3d 97b9 c0bd 02e9 a2bd
00000310: 1201 c7bd 1092 21be 296a dabd 1b94 0abe
00000320: eda1 ae3c 34b8 8b3d 432b db3c d9cf d6bc
00000330: c2aa a13d 3199 923a 8ba3 adbb bf0a 413b
00000340: f2b8 b83c 1ada d03d dfc5 bbbd 4726 243d
00000350: 0bb1 eebd 6136 a33d 9cdc 683d 507f 713c
00000360: a291 613d f527 203e e203 ec3d 268d 8abd
00000370: a8ad 3a3d e971 04be b9f7 1abd 4637 f83d
00000380: ee5e 673d 2192 82bd 58a6 0b3e ef46 2dbd
00000390: 7b6e 223e 5879 4b3d eb5a 6f3c 7eb1 b8bd
000003a0: c2d2 403d 0722 26bc 0b12 d7bd 5f6b 6cbd
000003b0: 2e3f b93d a748 ad3d b0cd 863d 7ce1 5c3d
000003c0: 7318 0d3e 2577 f43d 41ff e0bc f0e0 5e3d
000003d0: f5df 8ebd 9f68 553d f686 373d 3a89 a63c
000003e0: 1a62 b6bd b026 8d3b 4584 943d 09c8 c2bc
000003f0: a4f9 aebd cf04 da3d 21bc df3d 7b22 213d
